01-deep-neural-networks/02-cnn/cifar_net.pth (torch, 251604 bytes, 10 tensors)

conv1.weight f4 [6, 3, 5, 5]
0	0x3e8f31d7	0.27967712
1	0x3d605d96	0.05477675
2	0x3e52beda	0.20580617
3	0x3e789064	0.2427383
4	0x3d5c4437	0.053775992
5	0x3e2758e4	0.16342503
6	0x3e961ff8	0.29321265
7	0x3e9941d1	0.29933026
8	0x3ec2f1a6	0.38074988
9	0x3e618611	0.22023799
10	0x3e8c8792	0.27447182
11	0x3e960b7a	0.2930563
12	0x3e815e52	0.25267273
13	0x3e63b558	0.22237146
14	0xbd595a5f	-0.0530647
15	0xbde7d8e2	-0.11320664
16	0xbeb14c4e	-0.34628528
17	0xbed0ae32	-0.407579
18	0xbe82c0e6	-0.25537795
19	0xbe7859c4	-0.24252993
20	0xbe476c24	-0.19474846
21	0xbe767d31	-0.24071194
22	0xbecd5c78	-0.4010961
23	0xbec715d2	-0.38883835
24	0xbe9beef7	-0.30455753
25	0xbe22a762	-0.15884164
26	0xbe6222bc	-0.22083563
27	0xbeb5ec96	-0.35532063
28	0xbeb06f9d	-0.34460154
29	0xbe07d6ac	-0.13265485
30	0xbe5b8534	-0.21437532
31	0xba77d4c4	-0.0009454007
32	0xbd87a274	-0.06622782
33	0x3db05308	0.08609587
34	0x3dfd8988	0.12379748
35	0x3d91137d	0.07083795
36	0x3eac46cd	0.33647767
37	0x3e826fbc	0.25475872
38	0x3e082be0	0.13297987
39	0x3e0cc435	0.13746722
40	0xbe15731d	-0.14594693
41	0xbe1ae4e0	-0.15126371
42	0xbd9b062e	-0.07569538
43	0xbd4e4666	-0.050360106
44	0xbe0d6d80	-0.13811302
45	0x3de1d204	0.110263854
46	0x3cf1e376	0.029527407
47	0xbdaa5fc2	-0.083190456
48	0x3df24956	0.11830394
49	0x3dedf71d	0.11619399
50	0xbe65ae95	-0.22429879
51	0xbe9b8571	-0.30375245
52	0xbedd75df	-0.4325399
53	0xbed28f26	-0.4112484
54	0xbde4352f	-0.111429565
55	0xbe4e135e	-0.20124575
56	0xbe54d0de	-0.20782802
57	0xbd229c8f	-0.039700087
58	0x3cc0d6c1	0.023539903
59	0xbd79b57d	-0.060964096
60	0x3e5ce53f	0.21571825
61	0x3e1439f2	0.1447523
62	0x3ec3034b	0.3808845
63	0x3e85c98d	0.26130334
64	0x3e53098e	0.20609114
65	0x3b7198d8	0.0036864784
66	0x3e41aa40	0.18912601
67	0x3dfb59bf	0.12272977
68	0xbd048a19	-0.032358263
69	0x3e16983a	0.14706507
70	0x3e253d34	0.16136628
71	0x3e881906	0.2658159
72	0x3e811f49	0.2521918
73	0x3e28fdbb	0.1650304
74	0x3e22062e	0.1582267
75	0x3e215f20	0.15758944
76	0x3cde6b2f	0.027150718
77	0x3e41ef5e	0.18938968
78	0x3e8308fa	0.25592786
79	0x3d948f60	0.07253909
80	0xbc121d99	-0.008918189
81	0xbd119750	-0.035544693
82	0x3daab08e	0.083344564
83	0x3e35bcda	0.17747822
84	0x3cd44db4	0.025915958
85	0xbe379205	-0.17926796
86	0xbd368a30	-0.04456538
87	0x3dedf063	0.11618116
88	0x3e3b0e8e	0.18267271
89	0x3e0b4e58	0.13604105
90	0xbe80309d	-0.2503709
91	0xbdb20b43	-0.08693554
92	0x3cec533a	0.02884828
93	0x3e75f00d	0.24017353
94	0x3cfb6da3	0.030691927
95	0xbdfa8a1d	-0.12233374
96	0xbe021627	-0.12703763
97	0x3d8ea80e	0.06965648
98	0x3d38a030	0.04507464
99	0x3da15133	0.07876816
100	0xbe3c171c	-0.1836819
101	0xbeb51c97	-0.35373375
102	0xbe469a0f	-0.19394706
103	0xbe321fd6	-0.17394957
104	0xbe5944b6	-0.21217617
105	0xbeab21db	-0.33424267
106	0xbe9c5989	-0.3053706
107	0xbd2c4eb9	-0.042067263
108	0x3d11ab69	0.03556386
109	0xbd2de449	-0.042454038
110	0xbedc2870	-0.429996
111	0xbecaff8e	-0.39648098
112	0xbc8e0384	-0.01733566
113	0x3e2d17cd	0.1690361
114	0xbc9b77ef	-0.018978087
115	0xbe76162e	-0.24031898
116	0xbe497abc	-0.19675726
117	0x3c9ede78	0.01939319
118	0x3db81943	0.08989193
119	0xbd0cfeb8	-0.034422606
120	0xbe7c6957	-0.24649559
121	0xbe921ac7	-0.28536054
122	0xbd943b5d	-0.07237885
123	0x3dc964e6	0.09833698
124	0xbd185274	-0.03718801
125	0xbe09f239	-0.13471307
126	0xbd630c7c	-0.055431828
127	0xbdd68345	-0.104742564
128	0x3cb0c0ba	0.021576274
129	0x3df356d4	0.118817955
130	0xbe1d15dc	-0.1534037
131	0xbdfcba76	-0.12340252
132	0x3d783486	0.060596965
133	0x3e051e74	0.12999898
134	0x3e4a9e3f	0.19786929
135	0xbde295d2	-0.11063732
136	0xbe4efd42	-0.20213798
137	0x3e3f94b9	0.18709077
138	0x3ea09eb6	0.31371087
139	0x3e0ec3ff	0.13941954
140	0xbe238ef0	-0.15972495
141	0xbe3bae74	-0.18328267
142	0x3ea61cf1	0.32443956
143	0x3e22849a	0.15870896
144	0x3e2a47b1	0.1662891
145	0xbb8ff6b5	-0.0043934234
146	0x3e0433ad	0.12910338
147	0x3e824327	0.25441858
148	0x3e620c0f	0.22074912
149	0x3e0b6b6e	0.136152
150	0x3e15c801	0.14627077
151	0x3e335546	0.17512998
152	0x3e2b5e46	0.16735181
153	0x3e94cf58	0.2906444
154	0x3cb2d89b	0.021831801
155	0x3dcbb8ef	0.09947383
156	0x3e640e9b	0.22271197
157	0x3ef8889f	0.48541734
158	0x3ed187cc	0.40923917
159	0x3e256de2	0.16155198
160	0x3e946b4f	0.2898812
161	0x3e50a2d2	0.20374611
162	0x3e6e73ca	0.23286358
163	0x3ea4f621	0.3221903
164	0x3de8eef8	0.11373705
165	0xbe24892d	-0.16067953
166	0xbe260915	-0.16214402
167	0xbe1d4a8a	-0.15360466
168	0xbd7b8050	-0.061401665
169	0xbd2b6187	-0.041841056
170	0xbe1e4cc4	-0.15458971
171	0xbeabb14c	-0.33533704
172	0xbe86cd1d	-0.26328364
173	0xbe0d5b56	-0.13804373
174	0xbe981478	-0.29703116
175	0xbe081dfa	-0.13292685
176	0xbc6e2319	-0.014534735
177	0x3da07a90	0.07835877
178	0xbca601f7	-0.020264609
179	0xbd2201d3	-0.03955252
180	0xbd480dc0	-0.048841238
181	0x3e50a4cf	0.2037537
182	0x3e63f391	0.22260882
183	0x3dd90958	0.10597485
184	0xbde72774	-0.11286822
185	0xbd359dd9	-0.04433999
186	0x3c8406bc	0.016116492
187	0x3d7b4757	0.06134733
188	0xbd27e01f	-0.040985223
189	0xbe8e3640	-0.27775764
190	0xbe4a72a2	-0.19770291
191	0xbea128c0	-0.31476402
192	0xbebb0cb7	-0.36533138
193	0xbe76c475	-0.2409838
194	0xbe9a280c	-0.30108678
195	0xbe7f6874	-0.2494219
196	0xbe874947	-0.26423094
197	0xbe86a0c9	-0.26294544
198	0xbe8bcd55	-0.27305093
199	0xbe599b49	-0.21250643
200	0xbb75676b	-0.0037445675
201	0xbd6bbdc9	-0.05755404
202	0x3dc48b55	0.09596888
203	0x3d2b7142	0.041856058
204	0x3cc3ae08	0.023886696
205	0x3d9c6fb7	0.076384954
206	0x3da90a31	0.08253897
207	0x3d255c6b	0.04037134
208	0x3e0e1b8b	0.13877694
209	0x3cf21aac	0.029553734
210	0x3e2e8ca7	0.17045842
211	0x3d7b985c	0.061424598
212	0x3c37a184	0.011207942
213	0xbd487f62	-0.048949607
214	0xbd9f9887	-0.07792764
215	0x3dd917c4	0.10600236
216	0x3dbef020	0.09323144
217	0xbe0e88ad	-0.13919325
218	0xbcb8e4e0	-0.022570074
219	0x3dab3fa4	0.08361748
220	0x3e0e39f2	0.13889292
221	0x3dacf08d	0.08444319
222	0x3e044685	0.12917526
223	0x3dc0f6c1	0.094220646
224	0x3cd9842e	0.026552286
225	0xbd7eaa32	-0.06217403
226	0x3e1f3f56	0.15551504
227	0x3d60db36	0.054896556
228	0xbec79a6c	-0.38985002
229	0x3e1061f1	0.14099862
230	0x3e484910	0.19559121
231	0x3eeec8f4	0.4663769
232	0xbc64a57c	-0.01395547
233	0xbf141e11	-0.5785838
234	0xbe443fc1	-0.19164945
235	0x3e3f89d0	0.18704915
236	0x3da2eefe	0.079557404
237	0xbdfec14b	-0.124392115
238	0xbeac2357	-0.33620712
239	0x3d296f5b	0.041365962
240	0xbe00efe9	-0.12591518
241	0xbdc0ad37	-0.09408038
242	0xbbdd5fb4	-0.0067557935
243	0xbc883175	-0.016625145
244	0x3da3d179	0.07998938
245	0xbd83e776	-0.06440632
246	0xbe882955	-0.26594034
247	0xbd1a4172	-0.03766007
248	0x3e9da2ef	0.3078837
249	0x3e38211c	0.1798138
250	0x3d47b78e	0.048759036
251	0x3e5cc9bb	0.21561329
252	0x3e15adf2	0.14617136
253	0xbeeac5d6	-0.45854062
254	0x3cc45107	0.023964418
255	0x3eba1066	0.36340636

conv1.bias f4 [6]
0	0xbe827136	-0.25476998
1	0xbda9ab49	-0.08284623
2	0xbefa63e8	-0.48904347
3	0xbd3c6edd	-0.046004165
4	0x3d9cccd6	0.07656257
5	0x3f02e35e	0.51128185

conv2.weight f4 [16, 6, 5, 5]
0	0x3cc34219	0.023835229
1	0x3dcbbf81	0.09948636
2	0x3dafbddd	0.085811354
3	0xbd3102b0	-0.043215454
4	0x3d916824	0.070999414
5	0x3de52b1e	0.111898646
6	0xbd074c84	-0.033031955
7	0xbd4bc57f	-0.049748894
8	0xbdc27bbf	-0.09496259
9	0xbdb91960	-0.09038043
10	0x3d1005e0	0.035161853
11	0xbd16abe5	-0.036785025
12	0xbcc9a23c	-0.024613492
13	0xbc8dab30	-0.017293543
14	0x3d9bd894	0.076096684
15	0xbd02414b	-0.03180055
16	0xbd2d4b10	-0.042307913
17	0x3d28870d	0.04114442
18	0x3c9ce16c	0.019150458
19	0xbd80ee43	-0.06295445
20	0x3df69be6	0.12041454
21	0x3df17295	0.11789433
22	0x3d11ecf8	0.03562638
23	0xbc391eae	-0.0112988185
24	0xbc8e31b9	-0.017357694
25	0xbce2e82b	-0.027698597
26	0x3e696fcc	0.22796553
27	0x3d3857d2	0.045005627
28	0x3d855956	0.0651118
29	0x3e3f4c12	0.18681362
30	0xbdeb6269	-0.114933796
31	0x3e9e02b1	0.30861428
32	0xbd28e26f	-0.04123157
33	0x3c891995	0.016735831
34	0x3e327c0f	0.17430137
35	0xbd9dfe85	-0.077145614
36	0x3e618bc1	0.22025968
37	0xbda2b390	-0.07944405
38	0xbd08ddef	-0.033414777
39	0x3dfbc4b1	0.12293375
40	0x3de6f4af	0.112771384
41	0x3b09e115	0.00210387
42	0xbd217b77	-0.039424386
43	0xbd0ce8c9	-0.03440169
44	0x3ddd687f	0.10810947
45	0x3db0a323	0.08624866
46	0xbe000f02	-0.12505725
47	0xbd59ba03	-0.05315591
48	0xbd8e74f0	-0.06955898
49	0xbd329934	-0.043603137
50	0x3e9ab30c	0.30214727
51	0x3e4476f0	0.19185996
52	0x3d926d8e	0.07149802
53	0x3d97cf3e	0.07412575
54	0x3dfe48ed	0.12416253
55	0x3d7aa79b	0.061194997
56	0xbd245531	-0.040120307
57	0xbdbcb2b0	-0.092137694
58	0xbdc38f45	-0.09548811
59	0xba9dbbd8	-0.0012034131
60	0x3dc4e3e2	0.09613778
61	0xbcbccf37	-0.023048026
62	0x3d94e0ad	0.07269416
63	0xbd894741	-0.06703044
64	0xbcb63392	-0.022241388
65	0x3e0316b8	0.12801635
66	0x3d50be03	0.05096246
67	0xbc43ea50	-0.01195772
68	0xbd446dbd	-0.047956217
69	0xbcd0bb9d	-0.025480086
70	0xbd7e8468	-0.06213799
71	0xbc5340a4	-0.0128938295
72	0xbd359a47	-0.044336583
73	0xbdc92be9	-0.09822828
74	0xbe3a7128	-0.18207228
75	0x3e12a033	0.14318924
76	0xbd4fe037	-0.050750937
77	0xbb217f88	-0.0024642665
78	0x3dfe4607	0.124157004
79	0xbcee69fe	-0.029103275
80	0x3e8134af	0.25235507
81	0xbea5cd96	-0.32383412
82	0x3e1eb82c	0.15499943
83	0x3e2ee939	0.17081155
84	0xbe1b998f	-0.15195297
85	0x3e3b86f7	0.18313204
86	0xbe858c6a	-0.2608369
87	0x3dad4cdd	0.08461926
88	0x3e2239b8	0.1584233
89	0xbbe6f6fe	-0.0070484867
90	0x3dc1109d	0.09426997
91	0xbe4c7dc9	-0.19969858
92	0xbd3c9614	-0.046041563
93	0x3e6d0b46	0.23148832
94	0xbdc7fa93	-0.0976459
95	0xbbae1430	-0.005312465
96	0xbdc301b7	-0.095218115
97	0xbe3a8e4e	-0.18218347
98	0x3e2c5981	0.16831018
99	0xbdc32300	-0.0952816
100	0xbdabca13	-0.08388152
101	0xbe1b08af	-0.15140031
102	0xbdd01da0	-0.101619005
103	0xbe25d770	-0.16195464
104	0xbe12223a	-0.14270869
105	0xbdde681e	-0.108597025
106	0xbd713a40	-0.058893442
107	0xbe023a2e	-0.12717506
108	0xbd9ffff8	-0.07812494
109	0xbda42e34	-0.08016625
110	0xbe1fb81b	-0.15597574
111	0xbd3a1111	-0.045426432
112	0xbd6ea7ba	-0.058265425
113	0xbd932744	-0.07185224
114	0xbdf61f64	-0.12017706
115	0xbdb7ed82	-0.08980848
116	0xbd829140	-0.063753605
117	0xbce141d1	-0.027497204
118	0xbd4615c9	-0.04836062
119	0xbd423115	-0.04741009
120	0xbca832d4	-0.02053205
121	0x3bf5fb70	0.0075067803
122	0xbd5c5756	-0.053794228
123	0xbb1287ac	-0.0022358699
124	0xbcf309d1	-0.029667767
125	0xbe2bca15	-0.16776307
126	0xbe1aea75	-0.15128501
127	0xbe326380	-0.17420769
128	0xbe2de9a4	-0.16983658
129	0xbe49c9ab	-0.19705836
130	0xbd5c7938	-0.05382654
131	0xbc5998d2	-0.013281064
132	0xbd6855f9	-0.056722615
133	0xbd0c8766	-0.034308814
134	0x3cbbf723	0.022944992
135	0xbc982498	-0.018572137
136	0xbd32e14d	-0.043671895
137	0xbba57b5e	-0.005050107
138	0x3bf2ae07	0.0074059996
139	0xbdd29c8d	-0.10283766
140	0xbb568925	-0.0032735553
141	0x3d86662e	0.06562458
142	0xbd45a853	-0.04825623
143	0x3c48365e	0.012219993
144	0xbdcabc54	-0.09899202
145	0x3c095331	0.008381651
146	0x3cb9cb6b	0.022680005
147	0x3d40ebf1	0.04710001
148	0xbd9a10c3	-0.07522728
149	0xbde63a97	-0.11241644
150	0xbcbc79dd	-0.023007328
151	0xbd1aabf8	-0.03776166
152	0xbd545d3d	-0.05184673
153	0x3cb44476	0.022005301
154	0xbd9fa272	-0.07794656
155	0x3ce0aa2a	0.02742489
156	0xbc64f33c	-0.013974007
157	0xbcafcfdd	-0.021461422
158	0xbdb0c4b0	-0.08631265
159	0xbd1c4a44	-0.038156763
160	0xbd9ea41a	-0.07746144
161	0xbba1f944	-0.004943045
162	0x3d91b44e	0.071144685
163	0x3c9fad5b	0.019491842
164	0x3b975ea6	0.0046194373
165	0xbdcd6566	-0.10029106
166	0xbd317fdc	-0.043334827
167	0xbd38181e	-0.044944875
168	0x3da6f1a7	0.0815156
169	0xbcfca073	-0.030838227
170	0x3d903990	0.07042229
171	0x3d795bb4	0.06087847
172	0xbd644318	-0.055728048
173	0xbc5e0893	-0.013551849
174	0x3b0f90be	0.0021906341
175	0xbcf3e486	-0.029772054
176	0x3c7069e9	0.014673688
177	0xbb2bffd9	-0.0026245026
178	0x3a869345	0.0010267278
179	0x3dad3645	0.08457617
180	0xbdc4049e	-0.09571193
181	0xbda4220d	-0.08014307
182	0xbd6b2ebd	-0.05741762
183	0x3d54ac5a	0.05192218
184	0x3dcbb7f7	0.09947198
185	0xbd875ba6	-0.066092774
186	0x3c9d657d	0.019213432
187	0x3ce56aa8	0.02800496
188	0x3ded1531	0.115763076
189	0x3d32b689	0.04363111
190	0x3d5d1b03	0.05398084
191	0x3e2d43d5	0.16920407
192	0x3e5fa077	0.21838556
193	0x3dfd82c9	0.12378461
194	0xbdbc9e03	-0.09209826
195	0x3d97f66d	0.07420049
196	0x3e33d944	0.17563349
197	0x3e061d3e	0.13097093
198	0x3cb406b6	0.021975856
199	0xbd46c746	-0.048529886
200	0xbe27e7f2	-0.16397074
201	0xbd79e4f1	-0.06100935
202	0x3e039e48	0.12853348
203	0x3e559934	0.20859224
204	0x3dd685df	0.10474753
205	0xbcd94da5	-0.026526282
206	0xbd382f2d	-0.044966865
207	0xbda76f8c	-0.08175573
208	0x3d5d7a07	0.054071452
209	0x3dbaec97	0.09127157
210	0xbd28341b	-0.041065317
211	0xbda855f5	-0.0821952
212	0xbbefecd9	-0.0073219356
213	0xbc071aff	-0.008246182
214	0x3d138bef	0.036022123
215	0xbde630a6	-0.11239748
216	0xbcf3bb0e	-0.02975228
217	0xbca6b5b9	-0.020350324
218	0x3c210be3	0.009829494
219	0x3cf1bca1	0.02950889
220	0xbdc1fa0c	-0.09471521
221	0xbe028f5b	-0.12749998
222	0xbdd3ba4b	-0.10338267
223	0xbd832323	-0.06403186
224	0xbd7a1ab5	-0.061060626
225	0xbdea52c7	-0.1144157
226	0xbdb56e57	-0.08858936
227	0xbe0884e2	-0.13331941
228	0xbdb990b4	-0.09060803
229	0x3d864e0f	0.06557857
230	0xbdbe3d92	-0.09289087
231	0xbe214e6d	-0.15752573
232	0xbd86027a	-0.06543441
233	0x3d81fa3d	0.06346557
234	0xbd962713	-0.073316716
235	0xbe0a2348	-0.13490021
236	0xbdc2d84d	-0.09513912
237	0xbd068ccd	-0.03284912
238	0xbb20336f	-0.002444472
239	0xbd80fbed	-0.06298051
240	0xbe10e410	-0.14149499
241	0xbe1483b6	-0.14503369
242	0xbdabb077	-0.083832674
243	0x3d96a094	0.073548466
244	0x3dd4fa83	0.10399344
245	0xbe3cd59d	-0.18440862
246	0xbe4d4b46	-0.20048246
247	0xbe0c82a7	-0.13721715
248	0xbcaf9df1	-0.021437617
249	0x3dd72fa5	0.10507134
250	0xbd638dcf	-0.05555516
251	0xbd96dc4f	-0.07366239
252	0xbdfc673e	-0.123243794
253	0xbe0c8bd1	-0.1372521
254	0xbd9c4742	-0.07630779
255	0xbd34932e	-0.044085674

conv2.bias f4 [16]
0	0xbe1499d9	-0.14511813
1	0x3eb95ce5	0.36203685
2	0xbee1a34a	-0.44069892
3	0xbd7a8284	-0.061159626
4	0xbe42a22b	-0.19007175
5	0xbdf21254	-0.11819902
6	0x3f5afd08	0.85542345
7	0xbe84e4f6	-0.25955933
8	0xbf2703c6	-0.6524013
9	0x3f16da4f	0.5892686
10	0xbed19c17	-0.409394
11	0xbed20c2c	-0.4102491
12	0x3f3cfa05	0.73819
13	0xbe835910	-0.25653887
14	0xbcbf6cbb	-0.023367276
15	0x3c085d65	0.008323048

fc1.weight f4 [120, 400]
0	0xbb6d4d19	-0.0036209284
1	0xbd1fd9d0	-0.03902608
2	0xbb30ada4	-0.0026958967
3	0xbcd8b590	-0.026453763
4	0xbda9aa32	-0.08284415
5	0x3d10dd83	0.0353675
6	0xbd529e51	-0.051420514
7	0xbd40f631	-0.047109786
8	0xbc537315	-0.012905856
9	0xbd6adc8d	-0.05733924
10	0x3ca9e500	0.020739079
11	0xbd773232	-0.060350604
12	0xbd07e8ba	-0.03318093
13	0xb9d4781f	-0.00040525288
14	0xbcbd4d03	-0.023108011
15	0x3d4592a7	0.04823556
16	0x3d6f3804	0.05840303
17	0x3d332e4f	0.043745335
18	0xbc9fe46c	-0.0195181
19	0x3d5b70c2	0.05357433
20	0x3e0b6b53	0.1361516
21	0x3dbdfe76	0.0927705
22	0x3d6f5e04	0.05843927
23	0x3dff757e	0.12473582
24	0x3d8a870c	0.067640394
25	0x3d7ad1ca	0.061235227
26	0xbc996844	-0.018726476
27	0x3d1bb170	0.038011014
28	0x3d2a1e0e	0.04153257
29	0xbb88d291	-0.004175492
30	0x3ca6e003	0.020370489
31	0x3c974855	0.018467108
32	0xbc2de5f4	-0.010613907
33	0xbc3c757f	-0.011502623
34	0xbc9f27b9	-0.01942812
35	0x3abf0a39	0.001457519
36	0x3d2b972b	0.041892212
37	0xbdacffa8	-0.084472
38	0xbcb95292	-0.02262238
39	0xbd2ed127	-0.042679932
40	0xbb82cc7e	-0.0039916625
41	0x3d1339f4	0.03594394
42	0xbd0e4c37	-0.034740653
43	0xbc6cc8ab	-0.01445214
44	0xbd08bcdf	-0.033383247
45	0x3d183e90	0.03716904
46	0x39e46108	0.00043559843
47	0xbcd8a1c1	-0.026444318
48	0xbd396d8f	-0.0452705
49	0xbd199571	-0.037496034
50	0x3d1e3cc6	0.038632177
51	0x3d5e4a0c	0.054269835
52	0x3da356b0	0.07975519
53	0xbd18cba5	-0.037303586
54	0x3d82e89c	0.06392023
55	0x3b26837f	0.0025407968
56	0x3d046630	0.032324016
57	0x3cdbd61d	0.026835496
58	0x3c036577	0.008019797
59	0xbc51e744	-0.012811486
60	0x3c296501	0.010339023
61	0x3d037882	0.032097347
62	0x3dbe9a11	0.093067296
63	0x3d4bd577	0.049764123
64	0x3c3c9af6	0.011511555
65	0xbd206123	-0.039155137
66	0x3d03f36a	0.03221456
67	0xbca2a225	-0.019852707
68	0x3c8452d2	0.016152773
69	0xbce32730	-0.027728647
70	0xbd8d30a3	-0.06894042
71	0xbc0e8681	-0.00869906
72	0x3d0c4d36	0.03425332
73	0xbc986984	-0.018605001
74	0xbe03d077	-0.12872492
75	0xbd213cd3	-0.039364647
76	0xbdbd3d1c	-0.09240171
77	0xbe34d6ef	-0.17660116
78	0xbd946306	-0.0724545
79	0xbd597cea	-0.053097643
80	0x399c8d54	0.00029859936
81	0xbcf57d40	-0.02996695
82	0xbd31b91f	-0.043389436
83	0xbd12b389	-0.03581575
84	0xbc718fda	-0.01474377
85	0xbd100d46	-0.03516891
86	0x3c4a7b13	0.012358445
87	0xbd429dda	-0.04751382
88	0xbd4ead91	-0.050458495
89	0xbd375b4c	-0.0447648
90	0xbd0208be	-0.03174662
91	0x3ce4b5af	0.027918665
92	0xbcd865a1	-0.026415648
93	0xbc31a8ba	-0.01084345
94	0xbba01b63	-0.0048860773
95	0xbcc7fe92	-0.02441338
96	0xbd24dcc5	-0.040249605
97	0xbd21cc8e	-0.03950172
98	0xbd82807e	-0.06372164
99	0xbcc06d7c	-0.023489706
100	0xbc04eaff	-0.008112668
101	0x3c9b3174	0.01894448
102	0xbd59735d	-0.053088535
103	0xbda19232	-0.07889213
104	0xbb385be2	-0.0028130938
105	0x3bf2114d	0.0073873163
106	0x3d0b6836	0.03403493
107	0x3c87d9e2	0.016583387
108	0xbc3fde1b	-0.011710669
109	0x3d1e611d	0.038666833
110	0x3c664194	0.014053721
111	0x3ca40115	0.020020047
112	0x3d37dc52	0.04488785
113	0x3d955da1	0.07293249
114	0xbc6283e1	-0.013825388
115	0x3b200780	0.0024418533
116	0x3d37832e	0.044802837
117	0x3de3c2ea	0.11121161
118	0x3dc2d741	0.09513713
119	0x3d83c24e	0.06433545
120	0x3d134578	0.035954922
121	0x3d84ec50	0.064903855
122	0x3d832c50	0.06404936
123	0x3d5c787d	0.053825844
124	0x3d5f2376	0.054477178
125	0x3afe8916	0.0019419517
126	0xbb3a8e4c	-0.0028466163
127	0xbaf0fdcb	-0.0018386183
128	0xbd0a0cdc	-0.03370367
129	0xbbd99e98	-0.0066412203
130	0x3b6d6ce7	0.003622824
131	0xbdb8b398	-0.0901863
132	0xbdbc497f	-0.09193706
133	0x3b951ebd	0.0045507834
134	0xbb92baf8	-0.004477855
135	0xbd4d72b3	-0.050158214
136	0xbda65f46	-0.08123641
137	0xbdaa0dab	-0.08303388
138	0xbda726d8	-0.08161706
139	0x3d55286d	0.052040506
140	0xbcac2127	-0.021011902
141	0xbd5f703c	-0.054550394
142	0xbd809211	-0.0627786
143	0xbcb31367	-0.021859838
144	0x3d5a041e	0.053226583
145	0x3c93b810	0.018032104
146	0xbd260edf	-0.040541526
147	0xbcc4b378	-0.024011359
148	0xbcd19f33	-0.025588607
149	0xbcc8a140	-0.024490952
150	0xbc5dcb13	-0.013537186
151	0xbd772e9c	-0.060347185
152	0xbc4b38bd	-0.012403664
153	0xbc586b1e	-0.0132091325
154	0xbd90feaa	-0.07079823
155	0xbd156577	-0.036473718
156	0xbd4b9819	-0.0497056
157	0xbcfd80b0	-0.030945152
158	0xbb8d74e6	-0.004316914
159	0x3a800c30	0.0009769257
160	0xbd25e789	-0.040504012
161	0xbcfd712a	-0.03093775
162	0xbd6109d5	-0.054941017
163	0x3cebcf71	0.02878544
164	0xbd440085	-0.047852058
165	0xbc70468c	-0.014665257
166	0xbc0f1fcc	-0.008735608
167	0xbc632159	-0.013862931
168	0xbd7f0638	-0.06226179
169	0xbd165a4e	-0.036707215
170	0xbb2dbaba	-0.0026509003
171	0xbcc56407	-0.024095548
172	0xbb8ba9e0	-0.004262194
173	0x3c054877	0.008134953
174	0x3c945a95	0.0181096
175	0x3db191b7	0.08670371
176	0xbd271995	-0.04079588
177	0x3d50aa18	0.050943464
178	0x3d60eee2	0.054915316
179	0x3cac8ec0	0.021064162
180	0x3d8b83e3	0.06812265
181	0x3d4daf60	0.05021608
182	0x3d3c9778	0.04604289
183	0xbd22dde4	-0.039762393
184	0x3d274a00	0.040842056
185	0xbb70412a	-0.0036659935
186	0xbc8524ed	-0.01625296
187	0x3d22dd5a	0.03976188
188	0xbac32ee3	-0.0014891293
189	0x3dd45bde	0.10369085
190	0xbc04cb27	-0.008105076
191	0xbc80e96a	-0.0157363
192	0x3d0fe667	0.03513184
193	0x3cd1c06a	0.025604445
194	0x3bec966c	0.00722008
195	0xbd939be1	-0.07207466
196	0xbd7473f9	-0.059680913
197	0xbcec06e9	-0.028811889
198	0x3bb56ba6	0.0055365143
199	0x3cb075cb	0.021540543
200	0xbdd542d5	-0.10413138
201	0x3bc053d9	0.0058693704
202	0x3ca61401	0.02027321
203	0x3cd12bd4	0.025533594
204	0xbb7064e0	-0.003668122
205	0xbde86d12	-0.113489285
206	0xbd8c85fa	-0.068614915
207	0x3c3fac99	0.011698865
208	0xbd71a1c2	-0.058992155
209	0xbc98fe2a	-0.018675882
210	0xbdcc48bf	-0.09974813
211	0xbb391065	-0.0028238532
212	0xbd26b80d	-0.04070287
213	0xbd15096d	-0.036385942
214	0x3d0f13dd	0.034931052
215	0x3d3ecc3c	0.04658149
216	0x3d4dfd58	0.050290436
217	0x3d78e7d9	0.060767982
218	0x3c92b7f0	0.017909974
219	0x3d50312e	0.05082815
220	0xbc85f821	-0.016353669
221	0x3dc0c4b4	0.09412518
222	0x3d61c2d2	0.055117436
223	0x3dc44c3e	0.095848545
224	0x3d273749	0.04082421
225	0xbd617785	-0.055045623
226	0xbcc3da45	-0.02390779
227	0xbd4fcb09	-0.05073074
228	0x3d3056cc	0.043051526
229	0x3e0e3815	0.13888581
230	0xbd62f875	-0.05541273
231	0x3d05303d	0.032516707
232	0xbd18d628	-0.03731361
233	0x3d2c4310	0.042056143
234	0x3dacf4b6	0.084451124
235	0x3d110e1c	0.035413846
236	0x3ce294f7	0.027658923
237	0xbd0966ae	-0.03354519
238	0xbd4649be	-0.04841017
239	0x3c84f50f	0.016230134
240	0xbc96950f	-0.018381624
241	0x3c22f781	0.009946705
242	0xbc969189	-0.018379943
243	0xbd3a926e	-0.045549802
244	0x399141ba	0.00027705525
245	0x3d8d6924	0.069048196
246	0x3c7f3e93	0.015578884
247	0x3dacc95a	0.08436842
248	0x3d688e01	0.05677605
249	0xbc9147b5	-0.017734388
250	0xbc5826cc	-0.013192844
251	0xbda46d8e	-0.080287084
252	0xbda811f3	-0.082065485
253	0xbd274b95	-0.040843565
254	0x3c4d8e36	0.012546113
255	0xbd9cbebc	-0.07653567

fc1.bias f4 [120]
0	0xbc6f8322	-0.014618667
1	0xbe86e8fc	-0.26349628
2	0xbd8b9c55	-0.06816927
3	0xbd570de4	-0.05250348
4	0xbba56a7e	-0.0050480952
5	0xbbb85f8a	-0.0056266235
6	0x3cfd459f	0.030916987
7	0xbbf8c315	-0.007591615
8	0x3d2a6ce6	0.04160776
9	0x3d4b1b25	0.049586434
10	0xbadfcd79	-0.0017074785
11	0x3d252898	0.040321916
12	0x3dedeaa9	0.116170235
13	0x3d6afc63	0.0573696
14	0x3db28fc7	0.087188296
15	0x3d991e70	0.074765086
16	0x3cfda447	0.030962123
17	0x3ceb5ddb	0.028731277
18	0x3d510d79	0.05103824
19	0xb6a74187	-4.984616e-06
20	0x3daf29c5	0.08552889
21	0xbc81ee0d	-0.015860582
22	0xbb706c59	-0.0036685674
23	0x3db4692d	0.08809123
24	0x3c545cd3	0.012961584
25	0xbcf2fbe4	-0.029661126
26	0xbbb5655b	-0.005535764
27	0xbdefb4f6	-0.117044374
28	0xbcd0a8ee	-0.025471177
29	0x3d2d3721	0.042288903
30	0xbb97ec36	-0.004636313
31	0x3e349b03	0.17637257
32	0xbd14cfaf	-0.036330875
33	0x3dc5d119	0.09659023
34	0xbdb5257b	-0.088450395
35	0x3d30d9bb	0.043176394
36	0x3e0ec582	0.13942531
37	0xbcb19866	-0.021679115
38	0x3d96baab	0.07359823
39	0x3d928c3f	0.07155656
40	0xbcece38e	-0.0289171
41	0x3da35376	0.07974903
42	0xbd580fcc	-0.05274944
43	0x3cc7314f	0.024315504
44	0x3d57f0de	0.052719943
45	0x3c480d0a	0.01221014
46	0x3d669e57	0.05630335
47	0xbc3c8c76	-0.011508098
48	0x3e3d53f1	0.18489052
49	0x3c5d9bb9	0.013525897
50	0xbd04a413	-0.032383036
51	0x3e07f228	0.13275969
52	0xbc741b3b	-0.01489907
53	0xbd8800f3	-0.06640806
54	0x3d6c9f6b	0.05776922
55	0xbc75a839	-0.014993721
56	0x3dafe57b	0.08588692
57	0xbc536505	-0.012902503
58	0xbd6b765d	-0.057485927
59	0x3d90c275	0.0706834
60	0x3d8a3103	0.067476295
61	0x3c61c9f6	0.013781061
62	0xbd0ddbb6	-0.03463336
63	0x3e2f5384	0.17121702
64	0x3d837666	0.06419067
65	0xbc31fabd	-0.010863003
66	0x3cecd36a	0.028909404
67	0x3e3ace60	0.18242788
68	0xbd173e63	-0.03692473
69	0xbc9d7d0c	-0.019224666
70	0x3ddbcf78	0.10732931
71	0x3ddda5a9	0.10822613
72	0xbb8fe020	-0.0043907315
73	0xbe3b0fc2	-0.1826773
74	0x3ab1adca	0.0013555821
75	0xbde1fe17	-0.11034792
76	0xbd5b7ab2	-0.05358381
77	0xbc6876df	-0.014188497
78	0x3da61b2d	0.08110652
79	0xbd37dd47	-0.04488876
80	0xbc434d90	-0.011920348
81	0x3d18fc37	0.037349906
82	0x3d0487c7	0.03235605
83	0x3c71ef90	0.014766589
84	0xbd1b706b	-0.037949007
85	0x3e559fc6	0.2086173
86	0x3c8b3840	0.016994596
87	0x3de46beb	0.11153396
88	0x3c55bad2	0.01304503
89	0x3dbda355	0.09259669
90	0x3c110cfe	0.008853195
91	0xbbf73d03	-0.007545115
92	0x3ddf86dc	0.10914394
93	0x3c694da3	0.014239701
94	0xbb767b27	-0.0037610026
95	0x3c836e61	0.016043844
96	0xbce02b8c	-0.027364515
97	0xbce3adc0	-0.027792811
98	0x3cd6ca02	0.026219372
99	0x3dbb85d9	0.09156389
100	0x3bde7752	0.0067891264
101	0x3e4c096f	0.19925474
102	0x3dcd5c4b	0.10027369
103	0x3e21ced4	0.15801555
104	0x3d59d3e0	0.053180575
105	0x3ca9aa95	0.020711223
106	0x3d5ae021	0.053436402
107	0x3de0d7c3	0.10978653
108	0x3e42ea34	0.19034654
109	0xbcf89f3d	-0.030349368
110	0xbdbad1ef	-0.09122073
111	0xbc6d1913	-0.01447131
112	0x3e1d6d63	0.15373759
113	0x3c9e60b7	0.019333227
114	0xbdc386f1	-0.095472224
115	0x3d17c2b3	0.037050914
116	0x3c999add	0.018750602
117	0xbc1da704	-0.009622339
118	0x3e619e45	0.22033031
119	0x3dc98369	0.098395176

fc2.weight f4 [84, 120]
0	0x3be343a2	0.0069355527
1	0xbd7b6fae	-0.061385803
2	0xbd3b8f0a	-0.04579071
3	0x3ab6c484	0.0013944064
4	0x3c803f70	0.01565525
5	0x3cb68198	0.022278592
6	0xbca6c0a7	-0.020355536
7	0x3d05b1a5	0.03264012
8	0x3dfb2c71	0.12264336
9	0x3d4bbee6	0.0497426
10	0xbd68144a	-0.056659974
11	0x3d76d606	0.060262702
12	0x3c29fee4	0.010375712
13	0xbd9cb87f	-0.07652377
14	0x3e0f32f6	0.13984284
15	0xbdc012e7	-0.09378605
16	0xbdb928ea	-0.09041007
17	0x3c4f1ec7	0.012641615
18	0x3d8d55c3	0.069011234
19	0x3d3cf23a	0.046129443
20	0x3ce3c85d	0.027805502
21	0xbdaaba07	-0.08336263
22	0x3dacf862	0.08445813
23	0x3cee9e76	0.029128294
24	0xbe184483	-0.14869885
25	0x3d690452	0.056888886
26	0x3d4f1858	0.050560325
27	0xbdbe1790	-0.09281838
28	0xbdb7fd64	-0.08983877
29	0x3d45a29c	0.04825078
30	0xbd77e68b	-0.060522597
31	0xbc7c8ccf	-0.015414431
32	0x3d9e510e	0.07730304
33	0xbd8a5e1d	-0.06756232
34	0xbde21432	-0.11039008
35	0xbd435221	-0.047685746
36	0x3c8cd230	0.017190069
37	0xbccbe784	-0.024890669
38	0x3d6245c6	0.055242322
39	0x3dbeca50	0.09315932
40	0x3ca46d6f	0.020071713
41	0xbda0f42d	-0.07859073
42	0xbce72ebb	-0.028220525
43	0x3deebde2	0.11657311
44	0xbd425eab	-0.047453564
45	0xbb5a3aa7	-0.003329912
46	0xbdba008e	-0.09082137
47	0xbd6a761b	-0.05724154
48	0x3df03c1a	0.117302135
49	0xbd2c8c2c	-0.042125866
50	0xbe1ba1fe	-0.15198514
51	0x3dcb9491	0.09940446
52	0xbd459969	-0.048242006
53	0xbded13d8	-0.115760505
54	0xbdc263d6	-0.094916984
55	0x3c92ec91	0.01793507
56	0xbbc5253f	-0.006016403
57	0xbd89e00f	-0.06732189
58	0x3e0df4cd	0.13862915
59	0x3db0b4bb	0.086282216
60	0xbdc08fdc	-0.09402439
61	0xbdc64e7e	-0.0968294
62	0xbda17196	-0.07882993
63	0x3e0e04f3	0.13869075
64	0xbce5318a	-0.027977724
65	0x3d8a3334	0.067480475
66	0xbcb1b9df	-0.021695076
67	0xbcd7c03b	-0.02633678
68	0x3c631709	0.0138604725
69	0x3d5ef10e	0.054429106
70	0xbca4d1f8	-0.020119652
71	0xbd5d56b6	-0.054037772
72	0x3b17940e	0.002312902
73	0xbe280fb7	-0.16412245
74	0x3d27aaf2	0.04093451
75	0x3cec6c1d	0.028860146
76	0x3cd7886f	0.026310174
77	0x3bb512e1	0.005525932
78	0x3d923ab2	0.071401015
79	0xbd2a1cfc	-0.041531548
80	0xbc84c2f7	-0.016206248
81	0xbd3a1275	-0.04542776
82	0x3ca7d981	0.020489456
83	0x3c78d7ce	0.015188171
84	0xbd256a02	-0.0403843
85	0x3dd8ec6f	0.10591971
86	0xbd215c21	-0.0393945
87	0xbb311231	-0.00270189
88	0x3de70d2f	0.112818114
89	0x3d1a79c4	0.03771378
90	0x3d820abb	0.06349703
91	0x3c46d346	0.012135332
92	0x3c892f1f	0.016746102
93	0x3cce13f2	0.025155995
94	0xbe1339ec	-0.14377564
95	0x3d094c43	0.033519994
96	0x3d3b49ef	0.045724805
97	0x3c761861	0.015020461
98	0x3e016e31	0.12639691
99	0x3c517dbb	0.012786324
100	0x3cf9891b	0.030460885
101	0x3d16804a	0.03674344
102	0xba0a36a1	-0.00052724226
103	0x3d0b7d85	0.03405525
104	0xbd2fe186	-0.042939685
105	0xbdd906c5	-0.10596994
106	0xbdba7da5	-0.09105996
107	0x3d977f73	0.07397356
108	0x3bf0d4d8	0.0073495917
109	0x3c465106	0.012104278
110	0xbd32693b	-0.043557387
111	0xbd987308	-0.074438155
112	0x3dd60ce0	0.104516745
113	0xbd3184c6	-0.043339513
114	0x3d4c89bd	0.049936045
115	0xbdbbaa6e	-0.09163366
116	0x3d609581	0.054830078
117	0x3d741b31	0.059596244
118	0x3df0a5bc	0.11750361
119	0xbdb894c4	-0.0901275
120	0x3c80c80b	0.015720388
121	0xbc786ea4	-0.0151630975
122	0xbdb5c59c	-0.088755816
123	0x3c4a6d5b	0.012355174
124	0xbde476a3	-0.11155441
125	0x3dad7d53	0.08471169
126	0x3bcd2561	0.0062605594
127	0xbdd70b30	-0.10500181
128	0x3ce95f46	0.028487813
129	0xbd9bf02a	-0.07614167
130	0xbd50ed1f	-0.051007386
131	0x3ddcedb6	0.10787527
132	0x3ce53a79	0.027981983
133	0x3e01117a	0.12604323
134	0xbbed3010	-0.0072383955
135	0x3d4bae40	0.049726725
136	0xbd5110c7	-0.05104139
137	0xbd6c163d	-0.057638396
138	0xbcf2e32c	-0.02964934
139	0x3dbf483b	0.09339949
140	0x3d61124a	0.054949082
141	0xbd6c22f3	-0.057650518
142	0xbd00f47e	-0.031483166
143	0xbd9096ac	-0.070599884
144	0xbdbad224	-0.091221124
145	0x3d85c0f3	0.06530943
146	0x3d05fd54	0.032712296
147	0xbd506b58	-0.05088362
148	0x3d1eecb3	0.038799953
149	0xbda9eaa4	-0.08296707
150	0x3d5ee636	0.054418765
151	0x3d95b4ab	0.0730985
152	0x3d32faa2	0.043696053
153	0xbdaaa251	-0.08331741
154	0x3d20938d	0.039203215
155	0xbd0de00a	-0.03463749
156	0xbdc3b32d	-0.095556594
157	0x3d2d7b6d	0.042354036
158	0xbc560b00	-0.013064146
159	0x3d2a3daf	0.041562732
160	0x3d9e5aaa	0.077321365
161	0x3e1f5518	0.15559804
162	0x3c5ff9ee	0.013670428
163	0xbd14a662	-0.036291488
164	0xbd8ce01d	-0.06878684
165	0x3db2a46e	0.08722769
166	0x3d5a8349	0.05334786
167	0x3cfa3e68	0.030547336
168	0x3e1d7a70	0.15378737
169	0xbcbd72bb	-0.023125997
170	0x3cf252ec	0.029580556
171	0xbd4a5279	-0.04939506
172	0x3d721ec9	0.05911139
173	0xbd8e370d	-0.06944094
174	0xbce975ca	-0.028498549
175	0x3d91ee06	0.071254775
176	0xbd86a412	-0.06574263
177	0xbcbd568d	-0.02311256
178	0x3d73a942	0.05948759
179	0xbdaf1202	-0.085483566
180	0xbc0f377f	-0.008741259
181	0xbd868eeb	-0.06570228
182	0x3da73f8a	0.08166416
183	0xbd40610c	-0.04696755
184	0xbd832311	-0.06403173
185	0x3d452928	0.048134953
186	0x3d2405eb	0.040044706
187	0x3c712732	0.014718818
188	0x3d5ec5bb	0.05438779
189	0x3d27554a	0.040852822
190	0x3da324ac	0.07965979
191	0x3cbf512f	0.023354141
192	0xbdaffa5d	-0.08592675
193	0xbce4c2fa	-0.027925003
194	0x3d6045ee	0.05475419
195	0x3d9cefbd	0.07662914
196	0xbc92bc5d	-0.017912084
197	0x3d9e43d8	0.07727784
198	0x3dcd6d26	0.10030584
199	0x3cf27b61	0.029599847
200	0xbd6ae624	-0.057348385
201	0x3c162193	0.009163278
202	0x3dd93ae3	0.10606935
203	0x3d68a912	0.056801863
204	0x3d805d9a	0.06267853
205	0x3d527688	0.05138257
206	0xbc0a9a77	-0.008459679
207	0xbc1c9de1	-0.009559126
208	0xbc774189	-0.015091308
209	0xbdaff0ae	-0.08590828
210	0x3d129b0c	0.035792395
211	0x3ce75658	0.028239414
212	0xbc40a639	-0.011758381
213	0x3d447ca8	0.047970444
214	0x3d8c8ad7	0.06862419
215	0xbd9e7059	-0.07736272
216	0x3db8cad8	0.090230644
217	0xbc8394dd	-0.016062194
218	0x3c984b97	0.018590732
219	0x3d209dc3	0.039212953
220	0xbd202c1a	-0.03910456
221	0xbd98c8d7	-0.07460182
222	0x3e0b53db	0.13606207
223	0x3c0ff3a3	0.008786115
224	0xbd08796c	-0.033318922
225	0x3dc652f0	0.09683788
226	0x3e092fd3	0.1339715
227	0x3c3be3e3	0.011467907
228	0x3dadf2b0	0.084935546
229	0xbd974988	-0.07387072
230	0xbd6b6245	-0.057466764
231	0x3c26e0b0	0.010185406
232	0xbe042cef	-0.12907766
233	0x3d3ee192	0.04660184
234	0x3da2f00a	0.0795594
235	0xbcf5a9ac	-0.029988132
236	0x3b5c850b	0.0033648636
237	0x3d7b26be	0.061316244
238	0xbdcfd4b9	-0.101479955
239	0x3d6efa82	0.05834437
240	0x3d133d09	0.03594688
241	0xbb14e55e	-0.0022719721
242	0xbc57f2fd	-0.0131804915
243	0x3c510bb7	0.012759141
244	0xbc823649	-0.015895026
245	0xbd81481a	-0.063125804
246	0x3d3af33c	0.045642123
247	0xbc298758	-0.01034721
248	0xbd2a02ea	-0.041506685
249	0xbd094670	-0.03351444
250	0xbc06211f	-0.008186608
251	0xbd5e56e8	-0.0542821
252	0x3dbf5a76	0.09343426
253	0x3e045f58	0.12926996
254	0xbd27973b	-0.04091571
255	0xbdc7ee86	-0.097622916

fc2.bias f4 [84]
0	0x3e368763	0.17825083
1	0xbc6be65d	-0.014398185
2	0xba37ff4a	-0.0007018937
3	0x3e6797f2	0.22616556
4	0xbe99feb6	-0.30077142
5	0xbd8ac062	-0.06774975
6	0xbb51b239	-0.0031997098
7	0x3f047f4f	0.5175676
8	0x3d4813b7	0.048846927
9	0x3e57b98b	0.21066873
10	0x3e1ff281	0.15619852
11	0xbd9cdc5b	-0.07659217
12	0x3e024125	0.12720163
13	0xbd16e922	-0.036843427
14	0x3e619858	0.22030771
15	0x3e7ded09	0.24797453
16	0x3d3e28d9	0.046425674
17	0xbdc09c56	-0.09404819
18	0xbc8c3ebd	-0.01711976
19	0xbc9f80ac	-0.019470535
20	0xbcf1db06	-0.029523384
21	0x3dc9911e	0.09842132
22	0x3e2ee6a7	0.17080174
23	0xbcc50fce	-0.024055388
24	0x3d332262	0.043733962
25	0x3ea88e4a	0.32921058
26	0x3db5023f	0.08838319
27	0x3e2805f4	0.16408521
28	0x3ce7b482	0.028284315
29	0x3b9341d2	0.0044939304
30	0xbcda2867	-0.026630593
31	0x3dece19e	0.115664706
32	0x3e21caa4	0.15799958
33	0x3dd18f94	0.102324635
34	0x3b11d80f	0.0022254025
35	0x3cdc5daf	0.02690014
36	0xbdaefa2b	-0.085438095
37	0xbdb39ae3	-0.08769777
38	0xbc13b24c	-0.009014677
39	0xbb60ce0e	-0.0034302506
40	0x3c04fcbc	0.008116897
41	0x3d1c9123	0.03822435
42	0xbd9aef9e	-0.075652346
43	0x3dd89094	0.10574451
44	0x3df4d2cf	0.11954271
45	0x3de01428	0.109413445
46	0x3d198ebb	0.037489634
47	0xbdee3187	-0.1163054
48	0xbd40bd99	-0.047055814
49	0xbd4d84ba	-0.050175406
50	0xbdc3ea34	-0.09566155
51	0x3e52e79a	0.20596161
52	0xbc442d2d	-0.011973661
53	0xbc06ebbf	-0.008234917
54	0x3e5da23e	0.21643922
55	0xbd890026	-0.066894814
56	0x3da67c83	0.081292175
57	0x3dc21106	0.09475903
58	0x3e3476b6	0.1762341
59	0xbd506b4b	-0.050883573
60	0x3d0f0482	0.03491641
61	0x3e41f52d	0.18941183
62	0x3d0a69de	0.03379237
63	0xbdb54246	-0.08850531
64	0x3e085518	0.1331371
65	0xbdabe864	-0.08393934
66	0xbdbe4320	-0.09290147
67	0xbd17cebd	-0.037062395
68	0x3e097c3e	0.13426301
69	0xbd523cf2	-0.051327653
70	0x3b9f2fc9	0.0048579914
71	0xbd023873	-0.031792115
72	0x3dccebed	0.10005937
73	0x3d930121	0.0717795
74	0xbd89ada2	-0.06722571
75	0xbe2766fa	-0.16347876
76	0x3d29da2e	0.041467838
77	0x3d19b0c0	0.037522078
78	0x3e83c5a1	0.25736716
79	0x3dbff010	0.0937196
80	0x3d50068e	0.0507875
81	0xbd12f0b3	-0.03587408
82	0xbd8cd58a	-0.06876667
83	0x3e7f8131	0.24951626

fc3.weight f4 [10, 84]
0	0xbe6c262b	-0.23061435
1	0x3e1bf510	0.15230203
2	0x3d6e5003	0.058181774
3	0x3e11fbbb	0.14256184
4	0xbc4368cd	-0.011926842
5	0xbd2e9dee	-0.042631082
6	0x3d111db5	0.03542872
7	0xbed32154	-0.41236365
8	0x3e24fa1d	0.16111036
9	0x3d822668	0.06354982
10	0xba9f58f7	-0.0012157251
11	0xbdb45152	-0.08804573
12	0xbe016db7	-0.12639509
13	0x3d7f7036	0.062362872
14	0x3e823026	0.2542736
15	0xbd481de9	-0.04885665
16	0xbddec273	-0.10876932
17	0xbcb4d6f9	-0.022075163
18	0xbd636d6a	-0.055524267
19	0xbd1245cd	-0.0357111
20	0xbd914d60	-0.07094836
21	0xbde558df	-0.111985914
22	0x3c0591ff	0.008152484
23	0x3e3bb853	0.18332033
24	0xbce9d44c	-0.028543614
25	0x3ea2def0	0.31810713
26	0xbe719719	-0.23592795
27	0xbdb77fca	-0.08959921
28	0x3eaeb681	0.34123614
29	0x3d0ca2be	0.03433489
30	0xbdceba23	-0.100940965
31	0xbe5261a2	-0.20545056
32	0x3d0c4dca	0.034253873
33	0x3e7a4371	0.2443979
34	0xbd5ddf28	-0.054167897
35	0x3e517ce5	0.204578
36	0x3d5ee166	0.054414175
37	0xbe0f2ef7	-0.1398276
38	0x3d9ae09d	0.07562373
39	0xbdf2ba07	-0.11851888
40	0xbd46fab9	-0.04857895
41	0xbc58f449	-0.013241836
42	0x3b2ae497	0.0026076192
43	0xbdb799b2	-0.08964862
44	0x3e94ef41	0.29088786
45	0xbe4ce00b	-0.2000734
46	0x3e2f148f	0.17097686
47	0x3da63f50	0.08117545
48	0xbe016ed4	-0.12639934
49	0xbdd61933	-0.10454025
50	0xbc8d15f4	-0.017222382
51	0x3e1a3b18	0.15061605
52	0xbd33664d	-0.043798734
53	0x3d79ab18	0.060954183
54	0xbd8e000a	-0.06933601
55	0x3df92d70	0.1216687
56	0x3d6c7392	0.057727404
57	0xbe101860	-0.14071798
58	0x3e31bd23	0.17357306
59	0x3d68f4d0	0.056874096
60	0x3cec339c	0.028833203
61	0x3d279925	0.040917534
62	0x3c23e105	0.010002379
63	0x3ddb2263	0.10699918
64	0x3d7b86d2	0.06140787
65	0xbb7a11d5	-0.0038157601
66	0xbc8c0b5d	-0.017095262
67	0xbc23da6c	-0.010000806
68	0xbddc5383	-0.10758116
69	0xbc90d3e5	-0.017679164
70	0xbca626d3	-0.020282185
71	0x3e22f993	0.15915518
72	0xbd2834ce	-0.041065983
73	0xbd4fb905	-0.050713558
74	0xbd8cc711	-0.068739064
75	0x39498306	0.00019217664
76	0xbda11d68	-0.07866937
77	0x3e169b92	0.14707783
78	0xbe854e03	-0.2603608
79	0x3e107f58	0.14111078
80	0x3cf9e318	0.030503795
81	0xbdb901b1	-0.09033526
82	0x3e1a12de	0.1504626
83	0xbe257f57	-0.16161858
84	0x3d148f6e	0.036269598
85	0x3e2d074a	0.16897312
86	0xbd245675	-0.040121514
87	0x3e473a28	0.19455779
88	0x3ea50b55	0.32235208
89	0xbd707378	-0.05870387
90	0xbd9b36d2	-0.075788155
91	0xbeb36bee	-0.3504328
92	0xbd243c49	-0.040096555
93	0xbde4e452	-0.11176361
94	0x3e915b16	0.28389806
95	0x3cd95f6c	0.026534759
96	0xbe5feb8d	-0.21867199
97	0x3d3cc8e9	0.04609004
98	0xbda07fc4	-0.07836869
99	0xbcbafa81	-0.022824528
100	0xbd86465e	-0.0655639
101	0xbccec9ae	-0.025242653
102	0x3ca581a2	0.020203415
103	0xbd7017f1	-0.058616582
104	0x3d2bb891	0.041924063
105	0xbe6da4a9	-0.23207344
106	0xbe49e0f0	-0.19714713
107	0xbe0587c2	-0.13040069
108	0xbc032768	-0.008005001
109	0xbec55c91	-0.38547185
110	0x3dc2cd3b	0.09511801
111	0x3ca24fb0	0.019813389
112	0xbd18b20a	-0.037279166
113	0x3e2c04a2	0.16798642
114	0x3d3e1898	0.046410173
115	0xbdd5060a	-0.104015425
116	0xbc2ab82d	-0.0104198875
117	0x3d11c9ce	0.035592847
118	0xbceeb106	-0.029137146
119	0x3e1f5c10	0.15562463
120	0x3e34d035	0.1765755
121	0x3e80dbea	0.2516778
122	0x3d9c89af	0.076434486
123	0x3d8338c9	0.06407315
124	0xbe2e8839	-0.17044152
125	0x3ca8855b	0.020571401
126	0xbdb52a72	-0.088459864
127	0xbda64be5	-0.081199445
128	0xbd5c0a93	-0.05372102
129	0xbcacf584	-0.021113165
130	0xbdd4c7c8	-0.10389668
131	0x3de571c6	0.11203341
132	0xbc8caf21	-0.017173352
133	0xbe6f7c62	-0.23387292
134	0x3dba82e3	0.09106996
135	0x3e16c57a	0.14723769
136	0xbd13c1fb	-0.036073666
137	0xbd2f51d3	-0.042802643
138	0xbd0ca3e8	-0.034336
139	0x3e0b0545	0.13576229
140	0x3e04eb86	0.1298047
141	0x3e2f52fd	0.17121501
142	0xbd67ceba	-0.056593634
143	0xbe081607	-0.13289653
144	0xbe48a304	-0.19593436
145	0x3d9ad4d1	0.07560123
146	0xbcd58b76	-0.026067477
147	0x3dd75bc6	0.10515551
148	0xbe632bb3	-0.22184639
149	0x3c79ff0c	0.015258562
150	0x3c8e759a	0.017390061
151	0xbdb13006	-0.08651738
152	0xbdfa58fd	-0.122240044
153	0x3de62dbe	0.112391934
154	0xbdf92ebb	-0.12167116
155	0x3e4ecad4	0.2019456
156	0xbe6f3eaf	-0.23363756
157	0x3e9a91e8	0.30189443
158	0x3d50ea26	0.05100455
159	0x3cdf15ed	0.027232135
160	0x3d33d14b	0.04390077
161	0x3e35cf85	0.17754944
162	0xbde77aba	-0.11302705
163	0x3e384bfe	0.17997739
164	0xbd894bfe	-0.067039475
165	0xbdab1d80	-0.08355236
166	0x3e31e910	0.17374063
167	0xbe807302	-0.25087744
168	0x3e1f03c0	0.15528774
169	0x3e11864e	0.1421139
170	0x3d755645	0.059896726
171	0xbe5f4ea1	-0.21807338
172	0xbe32a62a	-0.17446199
173	0xbd1f3436	-0.03886815
174	0x3e0cc2a5	0.13746126
175	0x3e38eb56	0.18058524
176	0x3dd3b518	0.10337275
177	0x3de02da2	0.10946204
178	0xbe275ff7	-0.16345201
179	0xbda8c853	-0.08241334
180	0x3e2e22b2	0.17005423
181	0xbdc5ac75	-0.09652034
182	0xbd136a91	-0.0359903
183	0xbe1f999f	-0.15585946
184	0xbd266f95	-0.040633757
185	0x3bd26912	0.0064212168
186	0x3a1fc8f1	0.0006095311
187	0x3c9e7c10	0.019346267
188	0xbde181d1	-0.11011089
189	0xbc4d4960	-0.012529701
190	0xbc2e5925	-0.010641371
191	0x3ce4f6ca	0.02794971
192	0x3d3e6953	0.046487164
193	0x3e9bced8	0.30431247
194	0x3dff9c22	0.12480952
195	0xbe24c53e	-0.16090867
196	0x3da115aa	0.0786546
197	0x3c6a743d	0.01430994
198	0x3dd2dda2	0.10296179
199	0xbd7b8ab9	-0.061411593
200	0x3dd60568	0.1045025
201	0xbe36db89	-0.17857184
202	0x3e272680	0.1632328
203	0xbdf2bd3d	-0.118525006
204	0x3dc3f198	0.09567565
205	0xbd99e297	-0.07513922
206	0x3cfc5a2d	0.030804718
207	0x3c902fcf	0.017600922
208	0xbb28501d	-0.0025682517
209	0xbdc5d4a6	-0.096597
210	0x3e01b7d5	0.12667783
211	0x3d5e3cb6	0.054257117
212	0x3dde905a	0.108673766
213	0x3df90596	0.121592686
214	0x3e1bd669	0.1521851
215	0xbda535a4	-0.08066872
216	0xbdc90506	-0.09815411
217	0xbcf59b7b	-0.029981365
218	0xbbbbf5c2	-0.0057360837
219	0xbcedb37c	-0.029016249
220	0xbd3c9e67	-0.0460495
221	0x3cdcb55f	0.026941953
222	0x3e94c93d	0.29059783
223	0x3be36c66	0.0069404123
224	0xbe5a8ee8	-0.21343577
225	0xbdec0496	-0.11524312
226	0x3df4f266	0.11960296
227	0x3d9f0779	0.07765097
228	0xbe7f4713	-0.24929456
229	0xbd6d518c	-0.057939097
230	0xbdfad4ee	-0.12247644
231	0xbdb49641	-0.08817721
232	0x3eaaf968	0.33393407
233	0xbc8173e6	-0.015802335
234	0x3d7e7c9d	0.06213056
235	0xbd5ce16d	-0.05392592
236	0xbd16545b	-0.03670154
237	0xbd627017	-0.05528268
238	0x3d091906	0.03347113
239	0x3d8489f3	0.06471624
240	0x3e6c41ae	0.2307193
241	0xbe0e61fe	-0.13904569
242	0xbd0813f5	-0.033222158
243	0xbd524241	-0.051332716
244	0xbbe9c326	-0.007133859
245	0x3c0ad0d5	0.008472641
246	0xbe0e9963	-0.139257
247	0xbd9909c3	-0.07472565
248	0x3d44664b	0.047949117
249	0x3e14bbde	0.1452479
250	0x3d9fcd34	0.07802811
251	0x3e0898ba	0.1333951
252	0xbc14325c	-0.00904521
253	0xbe29d154	-0.16583759
254	0x3deab597	0.11460417
255	0xbe00f628	-0.12593901

fc3.bias f4 [10]
0	0xbe84edc8	-0.25962663
1	0xbf01695d	-0.50551397
2	0x3d9863df	0.07440924
3	0x3e8b59bd	0.27216902
4	0x3ef57f50	0.47948694
5	0xbe46edc2	-0.19426635
6	0x3d8a710e	0.06759845
7	0xbea130f5	-0.31482664
8	0x3edc419e	0.43018812
9	0xbe4236c7	-0.18966208
